model/keypoint_classifier/keypoint_classifier.tflite (tflite, 7540 bytes, 6 tensors)

arith.constant f4 [26, 10]
0	0xbe1dc901	-0.15408708
1	0x3f346b7c	0.7047651
2	0xbeb5ded0	-0.35521555
3	0x3da42d69	0.08016474
4	0x3e5341c0	0.2063055
5	0xbfa736f2	-1.3063643
6	0xbf14e4f1	-0.58161837
7	0xbe00fe01	-0.12596895
8	0xbe129eb3	-0.14318351
9	0x3ecbcd41	0.39805034
10	0xbdbac442	-0.091194645
11	0xbe7703c6	-0.24122533
12	0x3ed25e8f	0.41087767
13	0xbf2c2666	-0.6724609
14	0xbef578ba	-0.4794367
15	0x3e827860	0.25482464
16	0xbdbc7fc1	-0.092040546
17	0x3f1ca13e	0.61183536
18	0x3e3c99b9	0.18418016
19	0xbf2016ee	-0.6253499
20	0x3f24337d	0.64141065
21	0x3def8da7	0.1169694
22	0xbf1dcc27	-0.61639637
23	0xbf44e582	-0.769127
24	0x3d47dffe	0.0487976
25	0x3e0cfa15	0.13767274
26	0x3e8673a4	0.26260102
27	0x3e2b9538	0.16756141
28	0xbeb4feec	-0.3535074
29	0xbfe6d2b4	-1.8033051
30	0x3de31bf5	0.11089317
31	0xc0275b62	-2.6149526
32	0xbf01ee66	-0.5075439
33	0x3f2b210f	0.6684732
34	0xbf792168	-0.973166
35	0xc00691fa	-2.1026597
36	0x3f36d3bc	0.7141683
37	0xbf2a84e6	-0.66609037
38	0x3d8ab273	0.06772318
39	0xbf1cb0a0	-0.6120701
40	0x3efd2fe4	0.494506
41	0xbdf82c0f	-0.121177785
42	0xbf9628d6	-1.1731212
43	0xbeb3f0fd	-0.35144797
44	0x3f4a033d	0.7891119
45	0xbcf2e5b9	-0.029650556
46	0xbea410a7	-0.32043955
47	0x3e638477	0.222185
48	0xbfa0a333	-1.2549804
49	0xbf713e12	-0.94235337
50	0x3f30d819	0.6907974
51	0x3d9c45e1	0.07630516
52	0xbf9fb158	-1.2475996
53	0xbeaafea4	-0.333974
54	0xbf88bcb3	-1.0682586
55	0x3f249a92	0.64298356
56	0xbe015b8d	-0.1263258
57	0x3e37a9bc	0.17935842
58	0xbf8c9791	-1.0983754
59	0xbf0589ad	-0.521632
60	0xbd6aefe2	-0.057357676
61	0xbf5b648b	-0.8570029
62	0x3f28c865	0.6593078
63	0xbf5bf11d	-0.85914785
64	0x3e909fb9	0.2824686
65	0xbe950122	-0.29102427
66	0xbe843487	-0.25821325
67	0xc01537ca	-2.33153
68	0x3ebfca6c	0.37459123
69	0x3f408c8b	0.7521445
70	0xbc13986e	-0.00900851
71	0x3ce71225	0.028206894
72	0x3edad27d	0.42738715
73	0xbeab816e	-0.33497185
74	0xbfbe4bc3	-1.4866871
75	0xbebe189b	-0.37128147
76	0xbf011d7b	-0.5043561
77	0xbf5e41d6	-0.8681921
78	0x3f5ce648	0.8628888
79	0x3ef193f3	0.4718319
80	0x3d9b4e25	0.07583264
81	0x3e3d1712	0.18465832
82	0xbf7ddd2e	-0.9916562
83	0x3f3dd946	0.7415966
84	0xbe3044d2	-0.17213753
85	0xbfa61cbf	-1.2977523
86	0xbfa81b18	-1.3133268
87	0x3f668cc4	0.9005854
88	0xbf44d0ff	-0.768814
89	0xbec5801e	-0.38574308
90	0x3eeffe01	0.46873477
91	0x3f118953	0.56850165
92	0x3f1cd746	0.6126598
93	0xbf7ee594	-0.9956906
94	0x3d88f427	0.06687193
95	0x3e1b29ad	0.15152617
96	0xbf0c8453	-0.5488941
97	0xbe4def6c	-0.20110863
98	0xbe541369	-0.2071053
99	0x3eb72e42	0.3577748
100	0xbfe50c65	-1.7894408
101	0xc066cdee	-3.606319
102	0xbf7474d9	-0.95490795
103	0xbe7e6998	-0.24844968
104	0x3e12ffb3	0.14355354
105	0xbfb87d37	-1.4413213
106	0x3ece09e8	0.40241933
107	0xbf36034a	-0.7109877
108	0x3d1acd78	0.037793607
109	0x3fb3307e	1.3999174
110	0x3dae11b7	0.084994726
111	0xbf20445e	-0.6260432
112	0xbf70acac	-0.94013476
113	0x3f1a9c7f	0.60395044
114	0xbd8cbf76	-0.06872456
115	0xc071a466	-3.775659
116	0x3ee970d3	0.4559389
117	0xbf7e0282	-0.99222577
118	0x3da13fa7	0.07873469
119	0xbfb1c8ac	-1.3889365
120	0xbfcf7b51	-1.6209508
121	0xbd95f8c9	-0.07322843
122	0xbf6abf23	-0.916979
123	0x3d92900f	0.07156383
124	0x3f070429	0.5274072
125	0x3f308df9	0.68966633
126	0xbfa511f5	-1.2896105
127	0x3dc9511c	0.098299235
128	0xc0138dd2	-2.305531
129	0x3eaf7f7d	0.34276953
130	0xbfcac3e9	-1.5841037
131	0xbc9ac735	-0.018893817
132	0xbf6957be	-0.9114951
133	0xbe9c820b	-0.30567965
134	0x3f0470f9	0.5173488
135	0xbd8f0f10	-0.06985295
136	0xbf5d0486	-0.8633503
137	0x3ea3a81a	0.3196419
138	0xbfafa197	-1.3721188
139	0x3ee92837	0.45538494
140	0xbdc86687	-0.097851805
141	0x3e3cb878	0.18429744
142	0x3ececc2f	0.40390155
143	0xbfb75023	-1.4321331
144	0x3e7792c2	0.24177077
145	0x3e7dd8fc	0.24789804
146	0xbf1cf16d	-0.61305887
147	0x3e8274b1	0.25479653
148	0x3eb557d4	0.3541857
149	0x3e0d10c7	0.13775931
150	0xbf117b4d	-0.5682877
151	0xbec71268	-0.3888123
152	0xbeb0dd99	-0.34544066
153	0x3f2e59cf	0.6810579
154	0x3f07ca17	0.5304274
155	0xbee52016	-0.44751042
156	0xbf18a812	-0.59631455
157	0xbfb5eccd	-1.4212891
158	0x3f377cdf	0.71674913
159	0x3e977a5d	0.29585543
160	0x3ee3ff48	0.44530702
161	0xbdab1ff3	-0.08355703
162	0x3f1713f6	0.5901483
163	0x3ebe5ead	0.37181607
164	0xbfd68b8d	-1.6761338
165	0x3e947953	0.28998813
166	0xbf8ed91b	-1.1160005
167	0xbf04c2b9	-0.51859623
168	0x3eeab198	0.45838618
169	0xbf56bef0	-0.838851
170	0xc013094c	-2.2974424
171	0xbfd2a0dc	-1.645534
172	0xbfb8e7bf	-1.4445723
173	0xbf74b9dc	-0.955961
174	0xbe0fc3e1	-0.14039566
175	0x3df86a69	0.12129671
176	0x3f79c545	0.97566634
177	0x3da054a2	0.078286424
178	0xbf65928d	-0.89676744
179	0xbef0b5bc	-0.47013652
180	0x3e7b37af	0.2453296
181	0xbe0b324d	-0.13593407
182	0xbdd871c7	-0.10568576
183	0x3d1a62e6	0.037691973
184	0x3eba0fbf	0.36340138
185	0x3e3b3a55	0.1828397
186	0xbf8f5a05	-1.1199347
187	0x3ead52ec	0.33852327
188	0xbf0670de	-0.5251597
189	0x3e14964c	0.14510459
190	0xbf219517	-0.6311812
191	0x3f7991d1	0.97488123
192	0xbef31272	-0.4747501
193	0x3f2b34d6	0.66877496
194	0x3ddaedda	0.10689898
195	0xbfc1ebb9	-1.5150062
196	0xbf069b1b	-0.5258042
197	0xbec1bb7b	-0.3783835
198	0xbf0b91d9	-0.5451942
199	0x3ee36bfc	0.44418323
200	0xbfed9d33	-1.8563598
201	0xbfee5ef7	-1.8622731
202	0xbf2b03b6	-0.6680254
203	0xbf456042	-0.771
204	0xbe96103c	-0.2930926
205	0x3de7949e	0.11307643
206	0x3f6a00da	0.9140755
207	0x3d3dfdc6	0.046384595
208	0xbf765a5e	-0.9623164
209	0xbefd7d98	-0.49509883
210	0xbfa17977	-1.2615193
211	0xc08077ac	-4.0146084
212	0x3dfd94e1	0.12381912
213	0xbf41b519	-0.7566696
214	0xbe4590a3	-0.19293456
215	0xbe13f4ca	-0.14448848
216	0x3f57ec0a	0.8434454
217	0xbd52029b	-0.051272016
218	0xbf8ef9f3	-1.1170028
219	0xbde0167c	-0.109417886
220	0xbf7035eb	-0.9383227
221	0xbdfee3cb	-0.12445792
222	0x3e12f11e	0.14349791
223	0xbed984db	-0.42484173
224	0xbf0edabd	-0.5580252
225	0x3f0d2041	0.5512734
226	0x3f0184b9	0.50593144
227	0x3e2470df	0.16058682
228	0xbf22cf8f	-0.6359796
229	0xbf89a40a	-1.0753186
230	0xc01a3046	-2.4091964
231	0xbf449caf	-0.7680158
232	0xbe6c72de	-0.23090693
233	0x3f57dd42	0.8432199
234	0x3f1529b7	0.58266777
235	0x3e161097	0.14654766
236	0x3dc49a00	0.09599686
237	0x3da280ac	0.079346985
238	0xbf704acc	-0.9386413
239	0xbf6b6325	-0.9194816
240	0x3ec1318b	0.3773311
241	0x3f6238fb	0.88368195
242	0xba9808ae	-0.0011599266
243	0x3e452e71	0.19255997
244	0xbe663fee	-0.22485325
245	0xbf162fc3	-0.5866663
246	0xbfb155f9	-1.3854362
247	0xbd9e9095	-0.077424206
248	0xbf871d85	-1.0555884
249	0x3e93f2dd	0.28896227
250	0xbf792bbb	-0.9733235
251	0xbf902e72	-1.1264174
252	0xbf3b1a8b	-0.73087376
253	0x3f7b8b31	0.98259264
254	0x3f4ef094	0.80835843
255	0x3f187f57	0.59569305

arith.constant1 f4 [10, 20]
0	0x3f40f348	0.7537122
1	0x3df45670	0.11930549
2	0xbdd5057b	-0.10401436
3	0x3e588add	0.21146722
4	0x3e41c3e9	0.1892239
5	0x400c26af	2.189861
6	0xbe206bc2	-0.15666106
7	0x3eb50809	0.35357693
8	0x3e237643	0.15963082
9	0x3e13ef40	0.14446735
10	0x3e8bc4d0	0.27298594
11	0x3f01cc8e	0.5070275
12	0xbf2f1d25	-0.68403846
13	0x3f13c09f	0.5771579
14	0x3f2b6526	0.66951215
15	0x4016a5c9	2.3538687
16	0x3faf1b93	1.368029
17	0xbe86eee8	-0.26354146
18	0x3e2796e3	0.16366152
19	0x400ab884	2.167512
20	0xbfaaace0	-1.3334007
21	0x3f6d5239	0.92703587
22	0xbba9ad12	-0.0051781023
23	0x3f533166	0.8249725
24	0x3fe93c20	1.8221474
25	0x3ff5fe7c	1.9218287
26	0x3d8abed3	0.06774678
27	0x3f479788	0.77965593
28	0x3fdbafe5	1.7163054
29	0x3df735d2	0.12070812
30	0x3eada3bc	0.33913982
31	0xbec1ac72	-0.37826878
32	0x3f515528	0.81770563
33	0x3e8812bd	0.26576796
34	0x3d2a81dc	0.04162775
35	0x3f4e9e09	0.8070989
36	0xbe0ad38d	-0.13557263
37	0x3f71ef02	0.9450532
38	0x3f5dc5cd	0.86629945
39	0x3f611c08	0.879334
40	0x3e63f8e3	0.22262911
41	0x3c3d0cff	0.011538743
42	0x3f2a0722	0.66417134
43	0xc02f3237	-2.7374399
44	0xbd988ea6	-0.07449083
45	0x3eeb8048	0.45996308
46	0x3ef48b71	0.47762635
47	0x3f42f40b	0.7615363
48	0x3d95129d	0.07278941
49	0x3fbffc81	1.4998933
50	0x40091d71	2.142422
51	0x3e3e2f41	0.18572713
52	0x3fbdb90f	1.48221
53	0xbdde6607	-0.10859304
54	0x3ebba4d7	0.366492
55	0xbef19901	-0.47187045
56	0x3de4d17b	0.11172768
57	0x3f6b81ba	0.9199482
58	0x3f2dd2dc	0.6789987
59	0xbf2a9298	-0.66629934
60	0x3f613e8c	0.87986064
61	0x3f8c4c07	1.0960702
62	0x3e922513	0.2854391
63	0xbebe89b7	-0.37214443
64	0x3e9e1003	0.3087159
65	0xbd87c956	-0.06630199
66	0xbf094f78	-0.53636885
67	0x3eeb5ecc	0.45970762
68	0x3e0660fd	0.13122936
69	0x3f897f10	1.0741901
70	0xbef608e6	-0.48053664
71	0xbf3a4f65	-0.72777396
72	0xbce397e5	-0.02778239
73	0xbece0bdb	-0.4024342
74	0x3bf25716	0.0073956354
75	0x3faa16bb	1.3288187
76	0x3da975b1	0.08274401
77	0x3f51a410	0.81890965
78	0x3dcc8b1b	0.0998747
79	0x3f6865a6	0.90780103
80	0xbd444e2e	-0.04792612
81	0x3d578af8	0.052622765
82	0x3faa8107	1.3320626
83	0x3e8599e1	0.26093963
84	0x3f528ee5	0.8224929
85	0xbf311826	-0.6917747
86	0xbef89d0b	-0.48557314
87	0x40187cb7	2.382612
88	0x3ebae260	0.36500835
89	0x3d946004	0.07244876
90	0x3c95b99d	0.018276984
91	0x3f25c830	0.64758587
92	0x3fd7ee0c	1.6869521
93	0xbe076d7f	-0.13225363
94	0x3f85a9ea	1.0442479
95	0x3f0af126	0.54274213
96	0x3ebd0407	0.36917135
97	0x3e9da06f	0.30786464
98	0x4020914e	2.5088687
99	0x3ed14716	0.40874547
100	0x3f37fd6f	0.71871084
101	0x3f05990b	0.5218665
102	0x3e54b20f	0.20771049
103	0x3eab0fdc	0.33410537
104	0x3f420faa	0.7580515
105	0x3e65ace8	0.2242924
106	0x3fd679a9	1.6755878
107	0x3d374942	0.0447476
108	0x3f5c9141	0.8615914
109	0x3deb89f7	0.11500924
110	0xbde72460	-0.11286235
111	0x400ba99d	2.1822274
112	0xbe83590d	-0.25653878
113	0x3f431d8e	0.7621697
114	0x406ecec3	3.7313697
115	0x3df62ef5	0.12020675
116	0xbe28f016	-0.16497836
117	0x3f78a4a4	0.9712622
118	0x3e9cb9f7	0.3061063
119	0x3d52050c	0.051274344
120	0xbd054952	-0.032540627
121	0xbd8d8533	-0.06910171
122	0x4026bf1b	2.6054142
123	0xbf4b6742	-0.79454434
124	0x3db30878	0.0874185
125	0xbef25d5f	-0.47336861
126	0x3f90e252	1.1319067
127	0xbf204ac9	-0.62614113
128	0x3e475668	0.19466555
129	0x3f2b8e39	0.6701389
130	0xbf53eeb0	-0.82786083
131	0x3f3bb333	0.7332031
132	0xc0561126	-3.3447967
133	0x3fb45152	1.4087317
134	0x3eda27e5	0.42608562
135	0x3e11d001	0.14239503
136	0xbd0fd0f2	-0.035111375
137	0xbdcf16e8	-0.10111791
138	0x3cdcd14d	0.026955271
139	0x3e4fb579	0.2028407
140	0xc013ab28	-2.3073215
141	0xbf4f5d3e	-0.8100165
142	0x3e9bf813	0.30462703
143	0xbd82ec71	-0.06392754
144	0x3fb33cca	1.4002926
145	0x4004cf0c	2.0751371
146	0x3d27ee5d	0.040998805
147	0x3f10aa8f	0.5651025
148	0x3fd3b992	1.6541007
149	0x3e3b775c	0.1830725
150	0x3cfd11e4	0.03089232
151	0x3f8f5c5c	1.1200061
152	0x3e9148d3	0.28375873
153	0x3d3239b2	0.043512054
154	0x3f8cecd2	1.1009772
155	0xbe5b3d36	-0.21410069
156	0x3e3f6c5e	0.18693683
157	0xc04df1f9	-3.2178938
158	0x3e1e7414	0.15473968
159	0xbe9757f5	-0.29559293
160	0x3fc5daea	1.5457432
161	0x3fbf69a5	1.4954115
162	0x3ff027fa	1.87622
163	0x3f65874f	0.8965959
164	0x3e8e0ea6	0.2774555
165	0x3f48e16e	0.7846898
166	0x3ed52407	0.4162905
167	0x3d602112	0.05471904
168	0xbc68bd72	-0.0142053235
169	0x3de614a9	0.11234409
170	0x3f76ee70	0.96457577
171	0xbe0b1ff1	-0.13586403
172	0x3ef3575e	0.47527593
173	0x3f4b28d3	0.7935917
174	0x3e966bc2	0.29379088
175	0x3f4b2583	0.79354113
176	0x3f99b930	1.200964
177	0x3fe78982	1.8088839
178	0xbcf024d8	-0.029314443
179	0x3f674054	0.9033253
180	0x3ee2b48a	0.44278365
181	0xbe0d12cc	-0.13776702
182	0xbe4e2997	-0.20133053
183	0x402316ee	2.5482745
184	0x3cc2992a	0.023754675
185	0xbeb13a18	-0.34614635
186	0x3fc1fb6c	1.5154853
187	0x407fb440	3.9953766
188	0xbd45992c	-0.04824178
189	0x3f4ec7d8	0.8077369
190	0x3de56b3b	0.11202093
191	0x3d9dfce4	0.07714251
192	0x401e701a	2.4755921
193	0x3f265c5e	0.6498469
194	0xbe70eb10	-0.23527169
195	0x3e191456	0.14949164
196	0x3e6d6f39	0.2318696
197	0x3d6f6bdc	0.058452472
198	0x3f8c8192	1.0977042
199	0x3e40a9f1	0.18814828

arith.constant2 f4 [26]
0	0xbe6de7c7	-0.23232947
1	0xbefc1868	-0.4923737
2	0xbf6711e8	-0.902617
3	0x3f583e4d	0.84470063
4	0x3f3a501b	0.7277848
5	0x39129396	0.00013978625
6	0x3f6b5c56	0.9193777
7	0x3f7db0e6	0.9909805
8	0x3fa89c50	1.3172703
9	0xc00f4d65	-2.2390988
10	0x3e9762a2	0.29567438
11	0x3fa57756	1.2927043
12	0x3f4d5482	0.80207074
13	0x3f682b41	0.90691
14	0xbf98748b	-1.1910566
15	0xc01aeda3	-2.4207542
16	0xbf0e3a81	-0.5555802
17	0x3f2dfe24	0.6796591
18	0xbf06b22a	-0.52615607
19	0xbef93be6	-0.4867851
20	0x3eea310e	0.4574055
21	0x3e93f7a6	0.28899878
22	0xbf20fe18	-0.62887716
23	0xbf409831	-0.75232226
24	0xbe6bc263	-0.23023371
25	0x3ef266de	0.47344106

arith.constant3 f4 [10]
0	0xbe59a1bb	-0.21253102
1	0xbf2c83d4	-0.67388654
2	0xbe87b4fd	-0.2650527
3	0x3ff3b3ec	1.9039283
4	0x3f38109d	0.7190035
5	0x3da6db5a	0.08147307
6	0x40154282	2.3321843
7	0x3f88cc39	1.0687324
8	0xbf45e35e	-0.7730006
9	0x3f2c3049	0.6726118

sequential_27_1/dense_81_1/Add/ReadVariableOp f4 [20]
0	0x3fd90b95	1.695666
1	0x3ee91231	0.4552169
2	0xbf8852f4	-1.0650315
3	0xbf4e7d8e	-0.8066033
4	0xc014562e	-2.31776
5	0xbd0976bb	-0.033560496
6	0xbf083943	-0.53212374
7	0xbf65c2a0	-0.897501
8	0xbffa7b5c	-1.9568896
9	0xbdef4065	-0.11682204
10	0x3ec6990c	0.3878864
11	0xbfa3854a	-1.2775052
12	0xbfaf5985	-1.3699194
13	0xbf067a3b	-0.5253026
14	0xbf8af3ef	-1.0855693
15	0xbf2bb52e	-0.67073333
16	0xbd1646f8	-0.036688775
17	0x3fce535d	1.611919
18	0xbfd9789f	-1.6989936
19	0xbf43800c	-0.7636726

sequential_27_1/dense_81_1/MatMul f4 [20, 42]
0	0x3c49e680	0.012323022
1	0xbc0d0d40	-0.008609116
2	0xbd4cc123	-0.049988877
3	0xbd934d67	-0.07192498
4	0xbdeeed71	-0.11666382
5	0x3eae4164	0.34034264
6	0xbe28e31a	-0.16492882
7	0x3f22fe0d	0.636689
8	0x3df69279	0.12039656
9	0x3f05a2fd	0.52201825
10	0xbdb8d8c1	-0.090257175
11	0xbe409382	-0.1880627
12	0x3e425b94	0.18980247
13	0x3d9e39e6	0.07725887
14	0x3e4fa6fd	0.20278545
15	0x3d9ea6d2	0.07746662
16	0x3e4a7487	0.19771014
17	0x3e1aa5b0	0.15102267
18	0x3e30c0de	0.17261073
19	0xbe6001c2	-0.2187567
20	0x3d78a20d	0.06070142
21	0x3ec6303d	0.38708678
22	0x3ef2c55a	0.47416192
23	0x3f437b3f	0.76359934
24	0x3f435b25	0.7631095
25	0x3eec775b	0.4618481
26	0x3ebb5c22	0.3659373
27	0xbe5f798a	-0.21823707
28	0x3e8268fb	0.2547072
29	0x3f55f887	0.8358235
30	0x3e444849	0.191682
31	0x3f9d8dba	1.2308877
32	0x3e3fc31b	0.1872677
33	0x3f408514	0.7520306
34	0x3ee0b7fe	0.43890375
35	0xbddc0d92	-0.10744776
36	0x3eb8ba62	0.360797
37	0x3f8d5a8b	1.1043257
38	0x3e7676d6	0.2406877
39	0x3fc2769f	1.519245
40	0x3ed7d06d	0.42151204
41	0x3f868ba1	1.0511361
42	0x3e2d3340	0.16914082
43	0x3e8bdf56	0.2731883
44	0xbca08ccc	-0.019598387
45	0x3fc9a74c	1.575418
46	0x3e96ba9f	0.29439256
47	0x3ed39e75	0.4133183
48	0x3de1a554	0.11017862
49	0x3ea40d49	0.32041386
50	0xbea81c10	-0.3283391
51	0x3eb53c51	0.3539758
52	0xbe894eeb	-0.26818022
53	0xbe598696	-0.21242747
54	0xbd9cb0ba	-0.076508954
55	0x3dd3504c	0.1031805
56	0x3e113e20	0.14183855
57	0x3d4842a0	0.048891664
58	0x3ec65a2a	0.38740665
59	0x3d402d77	0.04691836
60	0xbf94f1db	-1.1636308
61	0xbf07dcd2	-0.5307132
62	0x3e98f66c	0.29875505
63	0x3e2a57a8	0.16635
64	0x3e90ae7b	0.28258118
65	0x3eb8c6a8	0.36089063
66	0xbdab2d1c	-0.08358213
67	0x3e957402	0.2919007
68	0xbf0b5382	-0.544243
69	0xbf1cbaf4	-0.6122277
70	0x3ea4499e	0.32087415
71	0x3ea6874d	0.325251
72	0xbe46a7d1	-0.19399954
73	0x3f006882	0.50159466
74	0xc01168a1	-2.272011
75	0x3e98ea9f	0.29866502
76	0xbea4071a	-0.32036668
77	0xbf774770	-0.9659338
78	0x3e8510b9	0.2598932
79	0x3eeead19	0.46616438
80	0x3ec7ea86	0.39046115
81	0x3f33cc51	0.7023364
82	0xbeb332ba	-0.3499964
83	0x3ede3e91	0.4340711
84	0xbe43726a	-0.19086614
85	0x3d8bc350	0.06824362
86	0xbc4a8998	-0.0123619065
87	0x3f07e602	0.5308534
88	0xbcb54d1b	-0.022131493
89	0x3e84a363	0.25905904
90	0xbd69f7b2	-0.057120986
91	0x3e525b87	0.20542727
92	0xbc3df84f	-0.011594846
93	0x3cecd8f4	0.028912045
94	0x3db5960f	0.08866512
95	0x3dba3efe	0.09094046
96	0xbd09b74c	-0.03362207
97	0x3d5fd7e9	0.054649267
98	0xbd4951c4	-0.049150243
99	0x3c6194f3	0.013768422
100	0xbd503d21	-0.050839547
101	0xc03399f4	-2.8062716
102	0x3dd91e64	0.106015
103	0x3d9eb2ad	0.077489235
104	0x3ce96c7c	0.028494112
105	0x3dd94077	0.10607999
106	0x3c279566	0.01022849
107	0x3dee41ee	0.11633669
108	0x3d612e43	0.05497576
109	0x3e10fa26	0.14157924
110	0xbd96f387	-0.07370668
111	0x3de52f96	0.11190717
112	0x3d1efaf8	0.03881356
113	0x3dc605ec	0.09669098
114	0x3c62d67b	0.013845081
115	0x3c8300a4	0.015991516
116	0x3deaad2d	0.11458812
117	0x3debb25d	0.115086295
118	0xbdb9cef9	-0.0907268
119	0x3dfd10c0	0.123567104
120	0xbcd59965	-0.02607412
121	0x3dec12f3	0.11527052
122	0xbb2c2270	-0.0026265644
123	0x3dac2bef	0.08406817
124	0xbc0720e2	-0.008247586
125	0x3cee7892	0.029110227
126	0xbe8db9ef	-0.2768092
127	0x3d879290	0.066197515
128	0x3e0dbae2	0.13840821
129	0xbf2e58b1	-0.6810408
130	0x3d980b82	0.0742407
131	0xbd1bbe83	-0.038023483
132	0x3df8217c	0.12115762
133	0xbd59a8ad	-0.053139377
134	0x3e4280cc	0.18994445
135	0xc0131d1f	-2.2986524
136	0xbe6ae345	-0.22938259
137	0x3db513f1	0.08841694
138	0x3e5faf74	0.21844274
139	0x3ce6c683	0.02817083
140	0x3eb29718	0.348809
141	0xbc0a0126	-0.008423125
142	0x3e996184	0.2995721
143	0xbd8790e0	-0.066194296
144	0xbf9e8475	-1.2384173
145	0x3dba59c5	0.090991534
146	0x3ee198bc	0.4406184
147	0x3dbb4510	0.09144032
148	0x3dc08a3b	0.09401365
149	0x3df5842a	0.11988099
150	0x3dc2e146	0.09515624
151	0x3e413ac9	0.18870081
152	0xbf08a887	-0.5338215
153	0x3e0faf42	0.140317
154	0x3ebec651	0.37260678
155	0x3e2d5cb7	0.16929899
156	0x3e3ce80f	0.18447898
157	0x3e86dc26	0.26339835
158	0x3df9970a	0.121870115
159	0x3e57acc5	0.21062
160	0xbd8d71fc	-0.069065064
161	0x3e48b262	0.19599298
162	0x3e5eede5	0.21770437
163	0x3e47aa31	0.19498517
164	0x3f0d3bd6	0.5516943
165	0x3e57e90e	0.21084997
166	0x3f771664	0.9651854
167	0x3e47e5bf	0.19521235
168	0x3e8be826	0.27325553
169	0x3d5efcd0	0.05444032
170	0xbc58a612	-0.013223188
171	0xbf39dc8f	-0.7260217
172	0xbd94d1b1	-0.07266558
173	0xbe6ba4ed	-0.23012133
174	0x3d38e0da	0.04513631
175	0xbe87bdf3	-0.26512107
176	0x3e2f647a	0.17128173
177	0xbccfa08e	-0.025345113
178	0xbe17609e	-0.1478295
179	0xbdfb0645	-0.12257055
180	0x3cc1562c	0.02360066
181	0xbde82c24	-0.11336544
182	0xbd7a975c	-0.061179504
183	0x3a9c267a	0.0011913322
184	0xbdae7c04	-0.08519748
185	0xbbfd1e34	-0.0077245478
186	0x39a04af9	0.00030573437
187	0xbde8582e	-0.11344944
188	0xbe74ee1b	-0.23918955
189	0xbe318cd1	-0.17338873
190	0xbe254199	-0.16138305
191	0x3c9b2da5	0.018942663
192	0x3dd38300	0.10327721
193	0x3d173160	0.036912322
194	0xbd3bbe0b	-0.045835536
195	0xbe35c41f	-0.17750596
196	0xbd9770b9	-0.07394547
197	0xbeef54ba	-0.4674433
198	0xbcbc8802	-0.023014072
199	0xbe136018	-0.14392126
200	0x3e36c98d	0.17850323
201	0x3eaa9466	0.33316344
202	0xbc29bcec	-0.010359984
203	0xbecfdb83	-0.40597162
204	0x3d83f452	0.06443085
205	0xbf90ba19	-1.1306792
206	0x3e56781e	0.20944259
207	0xbf93f1b7	-1.155814
208	0x3e671605	0.22566994
209	0xbf1d5368	-0.6145539
210	0x3e00793e	0.1254625
211	0x3e0d5642	0.13802436
212	0xbbc400f4	-0.005981559
213	0x3e8b616b	0.27222762
214	0xbd115141	-0.03547788
215	0x3e43be80	0.19115639
216	0xbc017729	-0.007901945
217	0x3e0e49b3	0.13895302
218	0x3d55674f	0.052100476
219	0x3e48cc94	0.1960929
220	0xbd2e85ff	-0.042608257
221	0x3d94d3d8	0.072669685
222	0xbbd2bc29	-0.006431122
223	0x3df2d88c	0.11857709
224	0xbc602b9a	-0.01368227
225	0x3e1fd5bc	0.15608877
226	0xbd046fd4	-0.03233321
227	0x3e179aa8	0.1480509
228	0xbcbea2c7	-0.023270978
229	0x3db110cb	0.08645781
230	0xbe02cd1f	-0.1277356
231	0x3df59660	0.119915724
232	0xbe1aee0c	-0.1512987
233	0x3e04e6d7	0.12978683
234	0xbe3b3a6e	-0.18284008
235	0x3db05111	0.08609212
236	0xbe35782d	-0.17721625
237	0x3de97469	0.113991566
238	0xbdbdd62e	-0.09269367
239	0x3e136776	0.14394936
240	0xbd65ed98	-0.05613479
241	0x3e5c9bd6	0.21543822
242	0xbbc7fd6d	-0.0061032088
243	0x3e695d3b	0.22789471
244	0xbe0442dc	-0.1291613
245	0x3e22820a	0.15869918
246	0xbd8fda1c	-0.07024023
247	0x3e69647b	0.22792237
248	0xbd53c17c	-0.051698193
249	0x3e581a17	0.21103702
250	0x3aaded14	0.0013269507
251	0xc036577a	-2.8490891
252	0xbe88af88	-0.2669642
253	0xbe9d73fe	-0.30752558
254	0xbe667806	-0.22506723
255	0xbfbdd414	-1.4830346
