model/keypoint_classifier/keypoint_classifier.tflite (tflite, 7540 bytes, 6 tensors)

arith.constant f4 [26, 10]
000000 a3 cd aa 3e 58 ce ee 3e f1 94 1d bf 74 99 25 bf
       0.33360013 0.46641803 -0.6155539 -0.64687276
000010 d3 0c 31 be 00 6f 52 3d 5e 7d f5 3e 0a 23 d6 3e
       -0.17290048 0.05137539 0.4794721 0.41823608
000020 e6 2d 2c 3e db 4d 7a bf f3 66 1c bd f1 f0 0d bf
       0.16814384 -0.9777505 -0.038184118 -0.5544577
000030 80 05 d6 3d 30 c3 70 be a8 1d 0f bf 92 72 5f 3e
       0.10450268 -0.23511958 -0.55904627 0.21821049
000040 67 0f 0a bf ac ab 8d 3e 52 df a2 3e b4 4b ec 3e
       -0.5392975 0.27670038 0.31811005 0.46151507
000050 c6 35 40 bd 8f d9 20 3e 2c 57 f4 be 61 79 f9 bd
       -0.046926282 0.15707992 -0.47722757 -0.12181354
000060 29 91 a0 bc ee 4a 2d 3f 9f 74 62 bf f1 92 a0 3e
       -0.019600468 0.6769246 -0.884592 0.31362107
000070 47 31 18 be f1 45 03 3f 0c d5 54 bf be fe 8d bf
       -0.14862548 0.512786 -0.83137584 -1.1093366
000080 47 65 51 be 67 2b 63 3f 12 02 00 3f 8a d5 ff be
       -0.2044879 0.887381 0.5000316 -0.49967605
000090 bb 88 3f bf 5e 73 74 bd 6b 8a 81 bf ed 18 de be
       -0.7481801 -0.059680335 -1.0120367 -0.43378392
0000a0 c6 df 36 3f b7 6f b4 be 8b b4 d8 bf a1 35 cf be
       0.714352 -0.35241482 -1.6930097 -0.40470603
0000b0 57 80 98 bb b2 f6 b1 be 0e 54 81 3e 29 89 d3 3d
       -0.004653971 -0.34758526 0.2525944 0.103288956
0000c0 b9 ca d1 be 63 a3 6e 3e 7f 42 9d be a5 61 91 bd
       -0.40974978 0.23304515 -0.30714795 -0.07098702
0000d0 72 ed 11 c0 f6 41 14 bf c0 f6 7a 3e 08 ae 53 3d
       -2.2801175 -0.5791315 0.2450819 0.05167964
0000e0 d9 92 1b bf 25 11 10 3e ca 5a e1 bc eb 85 44 3f
       -0.60770947 0.1406904 -0.027509112 0.7676684
0000f0 2a 99 92 be b0 3d 63 3f 47 b3 ba 3e 8c ad e3 3e
       -0.2863248 0.88766 0.36464903 0.44468343
000100 77 1e 82 be 1a 6c c4 3e df 92 4c 3e 5a 67 0d bb
       -0.25413868 0.38363725 0.19977902 -0.0021576495
000110 3e 52 d6 be 31 48 03 c0 c3 ca b1 bf 47 e1 fd 3e
       -0.4185962 -2.0512812 -1.3890003 0.49585935
000120 f3 3b ab 3e 90 77 cd bd d2 31 9f 3e d6 67 82 be
       0.33444175 -0.1003257 0.31092697 -0.25469846
000130 d1 a9 cb be 86 19 51 3f ef 5f e0 3e 66 df 08 c0
       -0.39777997 0.8167957 0.43823192 -2.1386352
000140 bc 7f 9c 3e 19 c8 2f bf a2 53 d0 bf b3 34 db be
       0.30566204 -0.686647 -1.6275523 -0.42813644
000150 42 f2 57 3f 92 6b 9e 3e ef 6e c0 bc c4 17 ea bc
       0.8435403 0.30941445 -0.023490397 -0.028575785
000160 82 75 14 3f c7 1e a1 bf 6f de 02 3e 06 f7 21 3d
       0.579918 -1.2587517 0.12780164 0.03954222
000170 c1 60 6d 3e 8a 0a 7b be c8 ce c6 bf 21 c6 5c 3f
       0.2318144 -0.24515739 -1.5531855 0.8623982
000180 2c 78 20 3d 81 ed cb 3c 4d 78 70 3f 5d 5e 23 3c
       0.039177105 0.024893524 0.93933564 0.009971228
000190 0f e2 1f c0 92 37 0e c0 8d 34 c2 3e 36 e4 ac 3f
       -2.4981725 -2.2221417 0.37930718 1.3507144
0001a0 ae 5f d4 bf 1e e8 14 c0 83 a0 94 3f 54 b9 a2 bf
       -1.6591699 -2.3266673 1.1611484 -1.2712808
0001b0 91 1d 20 c0 85 7f 5a be 0a f2 2e bf fe 18 2e 3e
       -2.5018046 -0.21337707 -0.6833807 0.17001721
0001c0 99 f7 48 be b2 e0 36 3f 72 e0 0e 3f 1e ac 25 3f
       -0.19625701 0.7143661 0.55811226 0.64715755
0001d0 3f 7a 98 bf 8e e5 11 bc 59 0d 65 bf c6 8f 82 bf
       -1.1912307 -0.008904828 -0.8947349 -1.0200126
0001e0 63 d9 20 3f e8 cf d1 bf f5 7d bd be d7 1e 97 bf
       0.62831706 -1.6391573 -0.3701016 -1.1806287
0001f0 0f 0c fc be 75 a0 10 bf 27 ef 26 3f 0b 1a 22 c0
       -0.4922795 -0.5649484 0.6520867 -2.5328395
000200 d1 a1 23 be b1 80 76 3e 32 b0 03 3e 3a cb 60 bf
       -0.15979697 0.2407253 0.12860182 -0.878101
000210 82 09 19 bf 85 b7 88 bf 1d 20 4a be af 1f 3a be
       -0.5978013 -1.0681006 -0.19738813 -0.18176149
000220 b4 8e 5e 3f 19 f8 1a c0 66 08 65 3e df 54 25 3d
       0.869365 -2.4213927 0.22366485 0.040364143
000230 06 76 68 bc 6e 10 f6 3e d3 0c fd 3d 46 47 1a bf
       -0.014188295 0.4805941 0.12355962 -0.60265005
000240 e1 43 4e bf 1c 72 39 3f ec 56 6e 3e f2 d4 a5 3e
       -0.80572325 0.7243974 0.23275346 0.32389027
000250 d5 e0 8c 3c 07 f6 a9 3e 72 b3 65 bf 30 14 38 3f
       0.017197052 0.33195516 -0.89726937 0.71905804
000260 7e 7f 7a 3e 64 84 57 3f c2 6d f1 3e 5f bc 06 3e
       0.24462697 0.8418639 0.4715405 0.13157795
000270 8d 14 2d bf ce af 0c 3e 81 33 f8 be 6e 74 42 c0
       -0.67609483 0.13738939 -0.48476794 -3.0383563
000280 66 c6 bd bf a8 f0 34 3f c5 5b 29 bf 4c a1 29 be
       -1.4826171 0.7067971 -0.66155654 -0.16565436
000290 44 6e 0a 3f 58 73 9a 3e ab 75 7e bf d8 5c 2d 3f
       0.540745 0.30166125 -0.993983 0.67719793
0002a0 2e e8 5a 3e e0 88 90 bf 67 94 bf be 92 70 85 c0
       0.21377632 -1.1291771 -0.3741791 -4.1699915
0002b0 57 f8 69 3e 3d b6 2f 3e b1 ec 60 bf ec 9e fb bc
       0.2284864 0.17159362 -0.8786116 -0.030715428
0002c0 d7 8c 9f bf e5 14 6d c0 a3 89 6b c0 66 18 57 3f
       -1.2464856 -3.7044003 -3.6802757 0.84021604
0002d0 ec 78 ce 3e 07 3e 96 bd 71 6e 91 be 53 e8 85 bf
       0.4032663 -0.073360495 -0.28404573 -1.0461525
0002e0 ad 8d a8 be 6c 32 c0 bd 3b ac e1 3e df 52 2a 3f
       -0.3292059 -0.09384617 0.44076714 0.665327
0002f0 d5 d6 3b bf bd 80 3b 3e ad 10 b3 3e 27 46 06 be
       -0.7337468 0.18310829 0.3497366 -0.13112698
000300 a7 ad 04 bb b7 f1 50 bf 28 81 eb 3e 36 aa 67 3e
       -0.0020245106 -0.8161883 0.45996976 0.22623524
000310 ae 6a eb 3e 11 8f 99 bd 9b 38 ea be a8 82 9c bf
       0.45979828 -0.07497991 -0.45746312 -1.2227373
000320 03 93 3c be af 18 01 c0 54 f0 f6 3e f4 d9 1c bd
       -0.18415456 -2.0171316 0.4823023 -0.038293794
000330 4e 6b 5f bf 3d e8 a3 bf 19 3b 8a bf 70 d4 2b c0
       -0.8727311 -1.2805248 -1.0799285 -2.6848412
000340 76 36 d0 bf 51 61 3c 3f 4c 00 5c be 0b 2e f2 bf
       -1.626662 0.73585993 -0.21484488 -1.8920301
000350 a5 9a 24 3f 7a 1d 63 3e 49 1d de bf ff f8 50 c0
       0.6429847 0.22179213 -1.7352687 -3.2651975
000360 8f 32 5a bf 75 37 c7 bf 64 6e 29 c0 eb 4c 0a 3f
       -0.85233396 -1.5563799 -2.6473627 0.5402362
000370 a8 0e 2f 3e e5 a2 dc bf 4a 89 31 3f 25 44 8c bf
       0.17095435 -1.7237211 0.6935011 -1.0958296
000380 8d 0e c1 3d eb e3 4f bf 55 e5 4b bf 1f 1c 22 bf
       0.094266035 -0.8120715 -0.7964681 -0.6332416
000390 71 89 1b bf f3 ff 20 3f 91 c3 a9 3f 6a 34 af bf
       -0.60756594 0.6289055 1.3262807 -1.368787
0003a0 e8 60 f4 3e 1f 62 a3 be 19 1e 61 3f ad 6b 92 bf
       0.47730184 -0.31910798 0.8793655 -1.143911
0003b0 bb 1d dc be 71 f6 e3 bf 34 02 fc bf 58 5e 0c bf
       -0.42991433 -1.7809583 -1.9688172 -0.5483146
0003c0 91 2e 23 bd be 6f 08 3f 37 74 87 bf d2 39 28 bf
       -0.03983933 0.53295505 -1.0582341 -0.65713227
0003d0 7b 31 7c 3e 5b 68 f6 bc bd 32 20 3f 34 18 c0 bd
       0.2462825 -0.030079057 0.6257742 -0.093796164
0003e0 24 a2 3a 3f de 86 95 be c1 f7 88 be e8 af 5c 3e
       0.72903657 -0.29204458 -0.2675152 0.21551478
0003f0 5c 71 ee bd 6f 89 31 3f b9 31 2e 3f 00 0a 4a be
       -0.11642715 0.6935033 0.6804462 -0.19730377

arith.constant1 f4 [10, 20]
000000 d0 d1 cb 3d f8 48 39 3f 11 13 e1 3f 62 f1 0e c0
       0.09952128 0.72376966 1.7583944 -2.2334828
000010 27 7e 39 3f 95 d4 6a 3f 08 95 b3 3f 87 c9 18 3f
       0.7245812 0.91730624 1.4029856 0.59682506
000020 96 ea 18 3e 2e d4 07 bd ca 8a a5 bd 95 ba 2f 3f
       0.14933237 -0.033161335 -0.080831125 0.68644077
000030 2c 39 48 3e 18 15 b9 3e 6a 49 07 bd da aa c9 bf
       0.1955306 0.36148906 -0.033028997 -1.5755265
000040 b3 d5 0c 3d a4 b5 f7 be f2 16 04 40 e2 0f d5 3f
       0.034383487 -0.48380768 2.0639005 1.6645472
000050 40 2d 8c be 1a c7 8f 3f b6 fc bb 3d c6 57 85 3d
       -0.27378273 1.1232636 0.0917906 0.06510882
000060 c4 6f c2 3f 14 6c 58 3b ae ae 97 3d ac 78 f0 3e
       1.5190358 0.0033023404 0.074063644 0.46967065
000070 78 5f 6f 3f 91 45 ad 3f d6 87 15 40 3c 7d 82 3f
       0.9350505 1.3536855 2.3364158 1.0194468
000080 c8 8c 5a 3e bb b6 db 3d e0 c1 26 3f 33 e6 f5 3f
       0.21342766 0.107282124 0.6513958 1.9210876
000090 f3 f1 37 3f b5 eb 68 be 55 20 a7 3e eb f7 d2 3d
       0.7185356 -0.22746165 0.32641855 0.10301193
0000a0 f5 b3 29 bd 05 99 b8 3e a8 0e d9 3d 59 03 33 3f
       -0.041431386 0.36054245 0.105984986 0.69926983
0000b0 e0 30 03 3d 92 86 7f 3e 07 4b 63 3d a1 23 ba 3f
       0.032029033 0.24953678 0.055491474 1.4542123
0000c0 fb bb f8 3f d4 59 25 40 ac 4e b0 bc 1d ee 93 3f
       1.9432367 2.5836077 -0.021521889 1.1557041
0000d0 40 da f2 3f f8 cc 16 40 de e5 0c be 01 dc 9a 3e
       1.8972855 2.3562603 -0.13759562 0.30245975
0000e0 3f e9 ee be 94 e9 3b bd a5 67 db 3e 4e 76 69 3e
       -0.46662328 -0.045877054 0.42852512 0.22799036
0000f0 50 1c 6f 3f fa d4 4a bd 37 c9 5f bf dd 74 6f 3d
       0.93402576 -0.049519517 -0.87416404 0.05846106
000100 a4 ed 11 3e 8e d1 d9 bc d9 df 88 bd 8b 49 05 3e
       0.14250809 -0.026589181 -0.066833206 0.13016336
000110 11 dd 86 bf 8f 33 81 3e d8 ea a6 3e 5c 63 ce 3e
       -1.0536214 0.2523465 0.32601047 0.4031018
000120 3c e6 df 3f cb 96 dc 3f ac f3 56 3f 1c fb 8d 3d
       1.7492137 1.7233518 0.83965564 0.06932661
000130 d9 aa df 3f 21 58 6d be 6b 61 56 3f ed 2c 94 be
       1.7474014 -0.2317815 0.837424 -0.28940526
000140 ce 33 2f be 28 8e c4 3f f7 e0 82 3f f5 5f 40 be
       -0.17109606 1.5355883 1.0224904 -0.18786605
000150 91 7f b0 3f b4 d9 19 3f 52 96 58 bf 42 ad 3a 3e
       1.378893 0.60097814 -0.8460437 0.18230155
000160 13 46 73 be cf ea 03 3d 76 1a 9e 3f 5d b2 c2 bd
       -0.237572 0.032206353 1.2351825 -0.09506676
000170 53 36 03 3f 7c 34 b5 3e 66 85 8d 3f ce 37 be 3f
       0.5125477 0.35391605 1.1056335 1.486078
000180 7a 4e ee 3d ba a7 a4 3f e9 9a 59 be be b5 01 3f
       0.11636062 1.2863686 -0.212505 0.5066794
000190 92 38 0f 3f c0 35 2e bf e7 16 9f 3f 83 48 1f 3d
       0.55945694 -0.68050766 1.2428864 0.038887512
0001a0 7a a3 ba bd ab df d5 3e 46 2e 7c 3e 94 d6 a8 be
       -0.09113212 0.41772208 0.24627027 -0.3297621
0001b0 07 44 70 c0 fd 86 4d 3e 4a 59 f9 3e 4a f4 c3 3e
       -3.754152 0.20071025 0.48700935 0.38272315
0001c0 d9 9a 84 3d 91 85 d8 3e 58 23 0f 3f 3c 5e 5b 3f
       0.06474847 0.42289403 0.55913305 0.85690665
0001d0 56 ef 0f be 06 e3 ad 3f 0b a9 8f 3f 74 9e 3f 3f
       -0.14056143 1.3584907 1.1223463 0.74851155
0001e0 c6 8f ea 3e b0 e1 0f be 5f 6d 99 3e 94 e5 8c 3e
       0.45812815 -0.14050937 0.29966256 0.27518904
0001f0 03 98 e5 3c 11 cf cd 3e 3d b3 44 be 95 cb 88 3e
       0.028026586 0.40197042 -0.19208999 0.2671782
000200 0e 77 2e 40 38 13 8d bf ae dd d2 bd 30 0a 01 3f
       2.7260165 -1.102149 -0.10296188 0.5040617
000210 4c 74 a6 be 7e 58 01 be a5 85 65 3f 27 7c ff bf
       -0.32510602 -0.12631413 0.8965705 -1.9959763
000220 db 36 fb 3e 48 2d 2d bd cc f8 44 40 a0 c9 88 3e
       0.4906529 -0.04227951 3.0776854 0.26716328
000230 f4 e9 d1 3f 58 b4 75 3f 43 3b dc 3e fd 45 09 3f
       1.6399522 0.9597831 0.43013963 0.5362242
000240 2b a7 25 3f 34 06 0d 3e e3 26 e1 3e 15 a4 20 3f
       0.64708203 0.13771898 0.4397498 0.6275037
000250 bc 0c 89 3e 5c 9b 99 ba 8b 50 e1 be a5 6b e5 3f
       0.26767528 -0.0011719274 -0.44006762 1.7923476
000260 18 08 ac bd 42 5a c4 3e 3d 1c 92 3f e6 86 73 3f
       -0.08399981 0.3835011 1.1414868 0.95127714
000270 41 92 7d 3f f2 06 a8 3f 0a 0c 0e 3e af ce 95 3d
       0.9905129 1.312712 0.1387178 0.073148124
000280 94 68 a4 bd 87 7c 82 bc 58 4c a4 3f a5 39 03 bd
       -0.08027759 -0.01592852 1.2835798 -0.032037396
000290 12 a5 de be 57 03 09 3f 5f 35 8e bd 7e 87 f7 3e
       -0.43485314 0.5352072 -0.069437735 0.4834556
0002a0 ff 97 6e 3f a2 94 a3 3e 88 8f ed 3e fc 8d 15 3f
       0.9320068 0.31949335 0.46398568 0.58419776
0002b0 b1 ca e1 be ef ef 6b be 48 ce 0c be 9b 98 ab 3e
       -0.44099954 -0.23040746 -0.13750565 0.33514866
0002c0 96 82 79 3f d7 11 2d 40 43 a2 3e 3e 95 6f 41 3f
       0.97464883 2.7042139 0.18616585 0.75560886
0002d0 a9 3c c2 3c 07 2e 9c 3e 6c 15 8b 3f 43 e8 89 40
       0.023710566 0.30503866 1.0865912 4.3096023
0002e0 ec ca 90 3e d5 73 ff 3f 55 28 64 40 eb 79 36 bc
       0.28279817 1.9957224 3.5649617 -0.011137466
0002f0 08 5c b1 be cb 66 0d 3f 48 c4 bc 3d df 9a 03 be
       -0.34640527 0.55234975 0.09217125 -0.12852047
000300 28 a4 ff 3d 62 43 3e 3f 09 3e c5 3e 06 01 fc bf
       0.12482482 0.7432157 0.38523892 -1.9687812
000310 be 02 c1 3e 2f a0 7e 3f cc 8c b3 3d 0f 2c 35 40
       0.37697405 0.9946317 0.08767089 2.8308141

arith.constant2 f4 [26]
000000 b3 f9 88 3f 81 ea 73 bf e2 80 1c c0 ed 1e 16 3f
       1.0701202 -0.952797 -2.4453664 0.5864094
000010 b8 56 27 be 50 bc bc 3c 2e ab 9a bf fc 56 9e 3f
       -0.16341674 0.023039013 -1.208349 1.2370296
000020 60 fb d0 3f fa 7f c3 bf c0 8a ca 3f d9 2f ce 3e
       1.6326714 -1.527343 1.5823593 0.4027088
000030 47 74 4b 3f 34 98 c9 3f 4c 63 3d c0 b1 f3 9b be
       0.794743 1.5749574 -2.9591856 -0.3045936
000040 ea c3 ce be e8 ee b3 3f d8 3d c4 be 6d 43 3b 3f
       -0.40383846 1.4057283 -0.38328433 0.7314976
000050 04 b7 8b 3f 89 17 f7 3f 13 e3 55 bf ea 52 47 bf
       1.0915227 1.9304057 -0.8354961 -0.7786089
000060 18 0e d4 bf bb f4 6f bf
       -1.6566801 -0.93732804

sequential_1/dense_1_2/BiasAdd/ReadVariableOp f4 [10]
000000 16 21 3d 3f cc 44 af bf a9 54 d8 3e 1b 1f ca 3f
       0.7387861 -1.369287 0.4225209 1.5790743
000010 d2 18 8e 3f c4 ea 9e be c7 d8 5d 3f 2d 1e 0a bf
       1.1101325 -0.31038487 0.866589 -0.53952295
000020 a8 fe 15 bf 44 a2 57 3f
       -0.585917 0.8423197

sequential_1/dense_1/BiasAdd/ReadVariableOp f4 [20]
000000 e2 a5 01 bf 29 13 ef be 25 46 b3 bf f1 a8 ca bf
       -0.5064374 -0.46694306 -1.4005781 -1.5832807
000010 f8 c5 8d bf d0 9d e1 bf 88 33 cf bf 63 72 8c bf
       -1.107604 -1.7626286 -1.6187601 -1.0972408
000020 22 bf af bf 3e 5f a2 bf 6f 51 eb 3d 02 fa d9 bf
       -1.3730204 -1.2685316 0.114901416 -1.7029421
000030 f5 21 21 bf 55 eb 97 bf be 06 02 be 1c b6 d6 3f
       -0.6294244 -1.1868693 -0.12697884 1.6774325
000040 ca 1a 06 3e 06 8d 8f 3e 14 73 da bf 77 ac e5 bf
       0.13096157 0.2803728 -1.7066369 -1.7943257

sequential_1/dense_1/MatMul f4 [20, 42]
000000 f5 b1 0e be 3a b4 97 be 6f d6 e1 3e a3 c8 2d 3f
       -0.13935073 -0.2962969 0.44108912 0.6788427
000010 03 dc aa 3e 3f cf c6 3e 47 93 7b 3f 0c d9 5a 3e
       0.3337098 0.3882999 0.982716 0.2137186
000020 3c 54 b0 3f 75 3e 39 3e 5b f5 60 3e 6a b1 73 3d
       1.3775706 0.18090232 0.21968596 0.059495367
000030 5f c9 82 3e 46 17 08 bd 92 b0 b3 3e d8 30 a2 be
       0.2554426 -0.03322532 0.3509565 -0.3167789
000040 d5 16 c8 3e 39 9b 04 bf ad ee 86 3f 40 fa b1 3d
       0.3907992 -0.5179935 1.0541588 0.086903095
000050 29 87 6f 3f 21 e9 af 3d 95 a2 a0 3f e4 4a e6 3d
       0.93565613 0.08589388 1.2549616 0.11244753
000060 73 45 e3 3f 70 20 0e 3e 7b 03 e0 3e b4 4c d2 3d
       1.7755569 0.13879561 0.43752655 0.10268536
000070 3e 75 56 3f 00 c5 8a 3d b1 bb f4 3f fd b2 85 3d
       0.8377265 0.06775856 1.9119779 0.0652828
000080 22 47 25 40 14 ca f3 3d a8 23 95 3d 49 71 fe 3d
       2.5824666 0.11903778 0.072821915 0.12423951
000090 04 87 be 3e 42 3b 35 3d 06 32 7b 3f 1e 3e f5 3d
       0.37212384 0.044245966 0.98123205 0.119747385
0000a0 58 56 a8 3f 78 4b 2f 3e 3c 48 7d 3e 74 6d 9e 3e
       1.315135 0.17118633 0.24734586 0.3094288
0000b0 4e ae cc be 33 01 97 3f 8b a1 d8 be 31 f5 aa 3e
       -0.39976734 1.1797241 -0.42310748 0.3339019
0000c0 83 29 8f bf 34 da 4e 3e 6e c8 e9 bf 33 ba 41 3e
       -1.1184543 0.20200425 -1.8264291 0.18918686
0000d0 dd a6 27 bf f9 1f 85 3d 44 7e 06 bf 10 47 c3 3c
       -0.6548899 0.06500239 -0.52536416 0.023837596
0000e0 b4 39 ad be 9e bb a2 3c 9b c5 63 be 4e 4c 48 bd
       -0.33833086 0.019864853 -0.22243349 -0.048900895
0000f0 ec f5 2d c0 53 53 10 3d 1c b4 8f be f5 44 cb 3b
       -2.7181349 0.035235714 -0.280671 0.0062032887
000100 5c 02 ce be 29 08 85 3d 86 34 17 bf 84 56 2c bc
       -0.40236175 0.06495697 -0.5906452 -0.010518674
000110 8f 78 a5 bf 45 31 8f bc 4f b1 99 3e 2a 5a dc bc
       -1.2927417 -0.017479548 0.30018088 -0.026898462
000120 7d 47 4f 3f 33 1a 8e 3d 79 2e c6 3f bc 08 ac 3d
       0.8096846 0.06938591 1.5482932 0.084001034
000130 0b a7 3f bd f2 f6 d9 bd cd 9a 00 3f d6 76 1f be
       -0.046790164 -0.10642804 0.5023621 -0.15572676
000140 ab 73 fa 3e 44 e6 86 3c 96 c3 4b 3e 39 66 d5 3d
       0.48916373 0.016467221 0.19898829 0.10419888
000150 0c dc a6 3d 18 f0 f0 bd ea b6 26 3d eb f3 82 be
       0.08147439 -0.11764544 0.040701784 -0.2557672
000160 be 59 9f 3c 1d 48 8c bd 71 11 96 3d 7c 0c 77 bd
       0.019451972 -0.06849692 0.073275454 -0.06031464
000170 61 88 49 3e 42 39 e1 bc 08 5d 81 bd 2f 3b 86 bd
       0.1968093 -0.027493123 -0.063165724 -0.06554257
000180 78 f6 7a bd dc 59 38 bd ca da 64 bd 0a 5f 5b 3c
       -0.061270207 -0.04500757 -0.055872716 0.013389358
000190 f7 fd 33 bd fd 5c 8d bd 22 07 c7 3c da 0e 80 bd
       -0.04394337 -0.06902502 0.024295393 -0.06252833
0001a0 c5 d1 9d be f2 48 eb bc b7 ac 8d 39 5e cb 6d 3d
       -0.30824104 -0.028721306 0.00027022298 0.058055274
0001b0 c1 0b cc 3d 0d be 50 3c 63 7d ec 3c 40 94 ae bd
       0.099631794 0.012740624 0.028868383 -0.0852437
0001c0 80 97 12 bd da 0a 6a bd 70 0c b8 bd f5 da 27 3e
       -0.035789013 -0.057139255 -0.08986747 0.16392119
0001d0 25 ce 43 be 19 e0 3b 3e 28 70 d1 3c ee 93 da bd
       -0.19121607 0.18347205 0.025566176 -0.106727466
0001e0 0f 64 bf 3d 2f d9 88 be 85 b5 cf 3d a1 c9 e7 bf
       0.093452565 -0.26728198 0.10142044 -1.8108407
0001f0 eb cf d1 3c aa 7e 8c bf be 6d 89 be b0 13 91 bd
       0.025611838 -1.0976155 -0.2684154 -0.07083833
000200 a1 ef f3 bd 07 dd fd bc b8 f6 13 bd e1 87 97 bc
       -0.1191094 -0.030989183 -0.03612396 -0.01849741
000210 db bd b8 bd c4 cd 33 bd 15 fa c9 bd 2f d7 44 bd
       -0.09020587 -0.043897405 -0.098621525 -0.048056778
000220 4f b5 20 3c cd 34 22 3c 80 35 07 3c e8 c1 43 3b
       0.009808852 0.009900284 0.0082525015 0.0029870216
000230 7a 4e c5 3c 8d 6c 49 39 ba 20 63 3d 68 cd 2b bd
       0.024085272 0.00019209292 0.055451132 -0.041943938
000240 fb c9 3b be 92 51 42 b9 25 be 3d bc dd 13 36 3c
       -0.18338768 -0.00018531669 -0.0115809785 0.011113134
000250 7c 75 30 bc 60 94 38 3d 75 59 90 3d cf f6 18 c0
       -0.010770198 0.045063376 0.070483126 -2.390064
000260 3b b6 05 be ac ee 93 bc 43 bc 1b bd 54 2e 87 3b
       -0.13057797 -0.018058144 -0.038021337 0.004125396
000270 0a ab e3 bc 12 d1 04 3e e3 fd 1e 3e b8 de 4e 3e
       -0.027791519 0.12970379 0.15526538 0.20202148
000280 d0 9f d7 bc 18 29 93 bd 54 56 07 bc 06 54 a8 3b
       -0.026321322 -0.071855724 -0.008260328 0.0051369695
000290 b9 2a 38 3c 15 3c 12 3d 0f 10 22 3d 5a e0 98 3d
       0.011240655 0.03570183 0.039566096 0.07464667
0002a0 ba 62 ce bd 26 21 2d 3e f0 17 4d bf 8f b4 3d 3f
       -0.10077424 0.16907176 -0.8011465 0.74103636
0002b0 4f dd 2f bf 8b 04 26 3e a2 98 d0 bf 07 cb 05 3e
       -0.68697065 0.1621267 -1.629658 0.1306573
0002c0 d8 e7 31 c0 43 a5 ec 3d 4e 2f ad be 97 bb e1 bc
       -2.7797756 0.11554959 -0.33825153 -0.02755527
0002d0 02 40 69 be 23 5d 13 bb d3 e0 94 be d6 fa 9a 3d
       -0.22778323 -0.0022485934 -0.29077777 0.075673744
0002e0 0c bd 9f be ae a4 bf 3d e6 24 8f 3e a7 67 c8 bd
       -0.3119892 0.09357582 0.2795784 -0.09785395
0002f0 81 1a b9 be 15 7f 95 bc 51 70 2f ba 8f 90 cf 3d
       -0.36153033 -0.018249074 -0.00066924567 0.10134994
000300 07 fd 02 3f cd 12 ad 3d df a4 af 3f c8 04 e1 bd
       0.5116734 0.084508516 1.372219 -0.1098724
000310 0e 25 8d 3e c3 7b 23 bc 19 e6 95 3e 82 53 36 3c
       0.27567333 -0.009978238 0.29277113 0.011128308
000320 ce 1a 00 3f 6b ea 6c bd 2d b0 39 3f 7e 62 1b be
       0.500409 -0.057840746 0.7253445 -0.1517429
000330 88 ab ec 3e be 1e e2 bc 9a 96 d2 3e f1 bd 8b 3d
       0.46224618 -0.02760255 0.41130525 0.06823338
000340 83 b6 e0 3e 60 2f 42 bc 36 e0 93 3e 52 da 0a 3e
       0.43889245 -0.011852115 0.28881997 0.13559845
000350 48 cf 4e bb 6d 9b 54 3f a3 1d 5b 3d da f9 89 3e
       -0.0031556655 0.8304966 0.05349506 0.26948434
000360 9b ca f0 3c fe c4 48 3e 01 7a f1 3c be 03 f2 3d
       0.029393485 0.19606397 0.029477121 0.1181712
000370 61 d8 bc 3d f0 c1 54 3c 1c 8c 2a 3d dd 10 70 bc
       0.092209585 0.012985691 0.041637525 -0.014652458
000380 73 5f ba ba db f9 92 bd 70 5c 5b 3d ff 2c b9 bd
       -0.001421912 -0.071765624 0.053554952 -0.090417854
000390 f1 0e f6 3e 49 73 58 bd 6c 52 0e 3e 58 d8 cd bd
       0.48058274 -0.05284432 0.13898629 -0.1005103
0003a0 cb 96 f5 3d d0 0a 49 be 41 ed 88 3d d7 c4 51 3d
       0.11991652 -0.19633031 0.066858776 0.05121311
0003b0 bb 41 a7 3e 36 4e a2 bd e1 2f 44 3e f5 a7 90 be
       0.32667336 -0.07925074 0.1915889 -0.2825314
0003c0 32 90 29 3c d6 39 c4 bf ec 08 c6 be a6 bb 0b c0
       0.01034932 -1.533015 -0.38678682 -2.1833282
0003d0 4a 3b 13 3d b7 ca e6 bd 6d 50 96 3d 50 5d 34 bd
       0.035945214 -0.112691335 0.07339559 -0.044034302
0003e0 a4 ca ce 3c 46 bd 5c 3d 35 05 70 bd 62 af 3c bc
       0.025243111 0.053891443 -0.058598716 -0.011516424
0003f0 b8 a9 0a 3e 20 bf ee 3d 9a 41 11 be 58 ae f5 3e
       0.13541305 0.11657548 -0.14185181 0.47984576
